…
    "  plt.axis('Off')\n",
    "  plt.show()"
   ]
  },
  {
   "cell_type": "code",
   "execution_count": 4,
   "metadata": {},
   "outputs": [
    {
     "name": "stdout",
     "output_type": "stream",
     "text": [
      "Found 2520 images belonging to 3 classes.\n",
      "Found 372 images belonging to 3 classes.\n",
      "Model: \"sequential\"\n",
      "_________________________________________________________________\n",
      "Layer (type)                 Output Shape              Param #   \n",
      "=================================================================\n",
      "conv2d (Conv2D)              (None, 148, 148, 64)      1792      \n",
      "_________________________________________________________________\n",
      "max_pooling2d (MaxPooling2D) (None, 74, 74, 64)        0         \n",
      "_________________________________________________________________\n",
      "conv2d_1 (Conv2D)            (None, 72, 72, 64)        36928     \n",
      "_________________________________________________________________\n",
      "max_pooling2d_1 (MaxPooling2 (None, 36, 36, 64)        0         \n",
      "_________________________________________________________________\n",
      "conv2d_2 (Conv2D)            (None, 34, 34, 128)       73856     \n",
      "_________________________________________________________________\n",
      "max_pooling2d_2 (MaxPooling2 (None, 17, 17, 128)       0         \n",
      "_________________________________________________________________\n",
      "conv2d_3 (Conv2D)            (None, 15, 15, 128)       147584    \n",
      "_________________________________________________________________\n",
      "max_pooling2d_3 (MaxPooling2 (None, 7, 7, 128)         0         \n",
      "_________________________________________________________________\n",
      "flatten (Flatten)            (None, 6272)              0         \n",
      "_________________________________________________________________\n",
      "dropout (Dropout)            (None, 6272)              0         \n",
      "_________________________________________________________________\n",
      "dense (Dense)                (None, 512)               3211776   \n",
      "_________________________________________________________________\n",
      "dense_1 (Dense)              (None, 3)                 1539      \n",
      "=================================================================\n",
      "Total params: 3,473,475\n",
      "Trainable params: 3,473,475\n",
      "Non-trainable params: 0\n",
      "_________________________________________________________________\n",
      "WARNING:tensorflow:sample_weight modes were coerced from\n",
      "  ...\n",
      "    to  \n",
      "  ['...']\n",
      "WARNING:tensorflow:sample_weight modes were coerced from\n",
…
